…
<br><span class="line"></span><br></pre></td></tr></table></figure><figure class="highlight python"><table><tr><td class="code"><pre><span class="line">paddle.Model(G(<span class="string">&#x27;G&#x27;</span>)).summary((-<span class="number">1</span>,<span class="number">100</span>))</span><br></pre></td></tr></table></figure><pre><code>--------------------------------------------------------------------------- Layer (type)       Input Shape          Output Shape         Param #===========================================================================   Linear-1          [[1, 100]]           [1, 1024]           103,424  BatchNorm-1       [[1, 1024]]           [1, 1024]            4,096   Linear-2         [[1, 1024]]           [1, 6272]          6,428,800  BatchNorm-2       [[1, 6272]]           [1, 6272]           25,088   Conv2D-1      [[1, 128, 14, 14]]    [1, 64, 14, 14]        204,864  BatchNorm-3    [[1, 64, 14, 14]]     [1, 64, 14, 14]          256   Conv2D-2      [[1, 64, 28, 28]]      [1, 1, 28, 28]         1,601===========================================================================Total params: 6,768,129Trainable params: 6,738,689Non-trainable params: 29,440---------------------------------------------------------------------------Input size (MB): 0.00Forward/backward pass size (MB): 0.31Params size (MB): 25.82Estimated Total Size (MB): 26.13-----------------------------------------------------------
…
ode></pre><figure class="highlight python"><table><tr><td class="code"><pre><span class="line">paddle.Model(D(<span class="string">&#x27;D&#x27;</span>)).summary((-<span class="number">1</span>,<span class="number">1</span>,<span class="number">28</span>,<span class="number">28</span>))</span><br></pre></td></tr></table></figure><pre><code>--------------------------------------------------------------------------- Layer (type)       Input Shape          Output Shape         Param #===========================================================================   Conv2D-3       [[1, 1, 28, 28]]     [1, 64, 26, 26]          640  BatchNorm-4    [[1, 64, 26, 26]]     [1, 64, 26, 26]          256   Pool2D-1      [[1, 64, 26, 26]]     [1, 64, 13, 13]           0   Conv2D-4      [[1, 64, 13, 13]]     [1, 128, 11, 11]       73,856  BatchNorm-5    [[1, 128, 11, 11]]    [1, 128, 11, 11]         512   Pool2D-2      [[1, 128, 11, 11]]     [1, 128, 5, 5]           0   Linear-3         [[1, 3200]]           [1, 1024]          3,277,824  BatchNorm-6       [[1, 1024]]           [1, 1024]            4,096   Linear-4         [[1, 1024]]             [1, 1]             1,025===========================================================================Total params: 3,358,209Trainable params: 3,353,345Non-trainable params: 4,864---------------------------------------------------------------------------Input size (MB): 0.00Forward/backward pass size (MB): 1.02Params size (MB): 12.81Estimated Total Size (MB): 13.83------------------------------------------------------------
…
 Version: 11.2, Runtime API Version: 10.1</span><br><span class="line">W0510 00:32:22.104816  8743 gpu_context.cc:272] device: 0, cuDNN Version: 7.6.</span><br><span class="line"></span><br><span class="line"></span><br><span class="line">-------------------------------------------------------------------------------</span><br><span class="line">  Layer (type)         Input Shape          Output Shape         Param #</span><br><span class="line">===============================================================================</span><br><span class="line">    Conv2D-1        [[1, 3, 256, 256]]   [1, 64, 128, 128]        9,408</span><br><span class="line">    BatchNorm-1     [[1, 64, 128, 128]]   [1, 64, 128, 128]         256</span><br><span class="line">  ConvBNLayer-1     [[1, 3, 256, 256]]   [1, 64, 128, 128]          0</span><br><span class="line">    MaxPool2D-1     [[1, 64, 128, 128]]    [1, 64, 64, 64]           0</span><br><span class="line">    Conv2D-2        [[1, 64, 64, 64]]     [1, 256, 64, 64]       16,384</span><br><span class="line">    BatchNorm-2      [[1, 256, 64, 64]]    [1, 256, 64, 64]        1,024</span><br><span class="line">  ConvBNLayer-2     [[1, 64, 64, 64]]     [1, 256, 64, 64]          0</span><br><span class="line">    Conv2D-3        [[1, 256, 64, 64]]    [1, 256, 64, 64]        9,216</span><br><span class="line">    BatchNorm-3      [[1, 256, 64, 64]]    [1, 256, 64, 64]        1,024</span><br><span class="line">  ConvBNLayer-3     [[1, 256, 64, 64]]    [1, 256, 64, 64]          0</span><br><span class="line">    Conv2D-4        [[1, 256, 64, 64]]    [1, 256, 64, 64]       65,536</span><br><span class="line">    BatchNorm-4      [[1, 256, 64, 64]]    [1, 256, 64, 64]        1,024</span><br><span class="line">  ConvBNLayer-4     [[1, 256, 64, 64]]    [1, 256, 64, 64]          0</span><br><span class="line">    Conv2D-5        [[1, 64, 64, 64]]     [1, 256, 64, 64]       16,384</span><br><span class="line">    BatchNorm-5      [[1, 256, 64, 64]]    [1, 256, 64, 64]        1,024</span><br><span class="line">  ConvBNLayer-5     [[1, 64, 64, 64]]     [1, 256, 64, 64]          0</span><br><span class="line">BottleneckBlock-1   [[1, 64, 64, 64]]     [1, 256, 64, 64]          0</span><br><span class="line">    Conv2D-6        [[1, 256, 64, 64]]    [1, 256, 64, 64]       65,536</span><br><span class="line">    BatchNorm-6      [[1, 256, 64, 64]]    [1, 256, 64, 64]        1,024</span><br><span class="line">  ConvBNLayer-6     [[1, 256, 64, 64]]    [1, 256, 64, 64]          0</span><br><span class="line">    Conv2D-7        [[1, 256, 64, 64]]    [1, 256, 64, 64]        9,216</span><br><span class="line">    BatchNorm-7      [[1, 256, 64, 64]]    [1, 256, 64, 64]        1,024</span><br><span class="line">  ConvBNLayer-7     [[1, 256, 64, 64]]    [1, 256, 64, 64]          0</span><br><span class="line">    Conv2D-8        [[1, 256, 64, 64]]    [1, 256, 64, 64]       65,536</span><br><span class="line">    BatchNorm-8      [[1, 256, 64, 64]]    [1, 256, 64, 64]        1,024</span><br><span class="line">  ConvBNLayer-8     [[1, 256, 64, 64]]    [1, 256, 64, 64]          0</span><br><span class="line">BottleneckBlock-2   [[1, 256, 64, 64]]    [1, 256, 64, 64]          0</span><br><span class="line">    Conv2D-9        [[1, 256, 64, 64]]    [1, 256, 64, 64]       65,536</span><br><span class="line">    BatchNorm-9      [[1, 256, 64, 64]]    [1, 256, 64, 64]        1,024</span><br><span class="line">  ConvBNLayer-9     [[1, 256, 64, 64]]    [1, 256, 64, 64]          0</span><br><span class="line">    Conv2D-10       [[1, 256, 64, 64]]    [1, 256, 64, 64]        9,216</span><br><span class="line">  BatchNorm-10      [[1, 256, 64, 64]]    [1, 256, 64, 64]        1,024</span><br><span class="line">  ConvBNLayer-10     [[1, 256, 64, 64]]    [1, 256, 64, 64]          0</span><br><span class="line">    Conv2D-11       [[1, 256, 64, 64]]    [1, 256, 64, 64]       65,536</span><br><span class="line">  BatchNorm-11      [[1, 256, 64, 64]]    [1, 256, 64, 64]        1,024</span><br><span class="line">  ConvBNLayer-11     [[1, 256, 64, 64]]    [1, 256, 64, 64]          0</span><br><span class="line">BottleneckBlock-3   [[1, 256, 64, 64]]    [1, 256, 64, 64]          0</span><br><span class="line">    Conv2D-12       [[1, 256, 64, 64]]    [1, 512, 64, 64]       131,072</span><br><span class="line">  BatchNorm-12      [[1, 512, 64, 64]]    [1, 512, 64, 64]        2,048</span><br><span class="line">  ConvBNLayer-12     [[1, 256, 64, 64]]    [1, 512, 64, 64]          0</span><br><span class="line">    Conv2D-13       [[1, 512, 64, 64]]    [1, 512, 32, 32]       36,864</span><br><span class="line">  BatchNorm-13      [[1, 512, 32, 32]]    [1, 512, 32, 32]        2,048</span><br><span class="line">  ConvBNLayer-13     [[1, 512, 64, 64]]    [1, 512, 32, 32]          0</span><br><span class="line">    Conv2D-14       [[1, 512, 32, 32]]    [1, 512, 32, 32]       262,144</span><br><span class="line">  BatchNorm-14      [[1, 512, 32, 32]]    [1, 512, 32, 32]        2,048</span><br><span class="line">  ConvBNLayer-14     [[1, 512, 32, 32]]    [1, 512, 32, 32]          0</span><br><span class="line">    Conv2D-15       [[1, 256, 64, 64]]    [1, 512, 32, 32]       131,072</span><br><span class="line">  BatchNorm-15      [[1, 512, 32, 32]]    [1, 512, 32, 32]        2,048</span><br><span class="line">  ConvBNLayer-15     [[1, 256, 64, 64]]    [1, 512, 32, 32]          0</span><br><span class="line">BottleneckBlock-4   [[1, 256, 64, 64]]    [1, 512, 32, 32]          0</span><br><span class="line">    Conv2D-16       [[1, 512, 32, 32]]    [1, 512, 32, 32]       262,144</span><br><span class="line">  BatchNorm-16      [[1, 512, 32, 32]]    [1, 512, 32, 32]        2,048</span><br><span class="line">  ConvBNLayer-16     [[1, 512, 32, 32]]    [1, 512, 32, 32]          0</span><br><span class="line">    Conv2D-17       [[1, 512, 32, 32]]    [1, 512, 32, 32]       36,864</span><br><span class="line">  BatchNorm-17      [[1, 512, 32, 32]]    [1, 512, 32, 32]        2,048</span><br><span class="line">  ConvBNLayer-17     [[1, 512, 32, 32]]    [1, 512, 32, 32]          0</span><br><span class="line">    Conv2D-18       [[1, 512, 32, 32]]    [1, 512, 32, 32]       262,144</span><br><span class="line">  BatchNorm-18      [[1, 512, 32, 32]]    [1, 512, 32, 32]        2,048</span><br><span class="line">  ConvBNLayer-18     [[1, 512, 32, 32]]    [1, 512, 32, 32]          0</span><br><span class="line">BottleneckBlock-5   [[1, 512, 32, 32]]    [1, 512, 32, 32]          0</span><br><span class="line">    Conv2D-19       [[1, 512, 32, 32]]    [1, 512, 32, 32]       262,144</span><br><span class="line">  BatchNorm-19      [[1, 512, 32, 32]]    [1, 512, 32, 32]        2,048</span><br><span class="line">  ConvBNLayer-19     [[1, 512, 32, 32]]    [1, 512, 32, 32]          0</span><br><span class="line">    Conv2D-20       [[1, 512, 32, 32]]    [1, 512, 32, 32]       36,864</span><br><span class="line">  BatchNorm-20      [[1, 512, 32, 32]]    [1, 512, 32, 32]        2,048</span><br><span class="line">  ConvBNLayer-20     [[1, 512, 32, 32]]    [1, 512, 32, 32]          0</span><br><span class="line">    Conv2D-21       [[1, 512, 32, 32]]    [1, 512, 32, 32]       262,144</span><br><span class="line">  BatchNorm-21      [[1, 512, 32, 32]]    [1, 512, 32, 32]        2,048</span><br><span class="line">  ConvBNLayer-21     [[1, 512, 32, 32]]    [1, 512, 32, 32]          0</span><br><span class="line">BottleneckBlock-6   [[1, 512, 32, 32]]    [1, 512, 32, 32]          0</span><br><span class="line">    Conv2D-22       [[1, 512, 32, 32]]    [1, 512, 32, 32]       262,144</span><br><span class="line">  BatchNorm-22      [[1, 512, 32, 32]]    [1, 512, 32, 32]        2,048</span><br><span class="line">  ConvBNLayer-22     [[1, 512, 32, 32]]    [1, 512, 32, 32]          0</span><br><span class="line">    Conv2D-23       [[1, 512, 32, 32]]    [1, 512, 32, 32]       36,864</span><br><span class="line">  BatchNorm-23      [[1, 512, 32, 32]]    [1, 512, 32, 32]        2,048</span><br><span class="line">  ConvBNLayer-23     [[1, 512, 32, 32]]    [1, 512, 32, 32]          0</span><br><span class="line">    Conv2D-24       [[1, 512, 32, 32]]    [1, 512, 32, 32]       262,144</span><br><span class="line">  BatchNorm-24      [[1, 512, 32, 32]]    [1, 512, 32, 32]        2,048</span><br><span class="line">  ConvBNLayer-24     [[1, 512, 32, 32]]    [1, 512, 32, 32]          0</span><br><span class="line">BottleneckBlock-7   [[1, 512, 32, 32]]    [1, 512, 32, 32]          0</span><br><span class="line">    Conv2D-25       [[1, 512, 32, 32]]   [1, 1024, 32, 32]       524,288</span><br><span class="line">  BatchNorm-25     [[1, 1024, 32, 32]]   [1, 1024, 32, 32]        4,096</span><br><span class="line">  ConvBNLayer-25     [[1, 512, 32, 32]]   [1, 1024, 32, 32]          0</span><br><span class="line">    Conv2D-26      [[1, 1024, 32, 32]]   [1, 1024, 16, 16]       147,456</span><br><span class="line">  BatchNorm-26     [[1, 1024, 16, 16]]   [1, 1024, 16, 16]        4,096</span><br><span class="line">  ConvBNLayer-26    [[1, 1024, 32, 32]]   [1, 1024, 16, 16]          0</span><br><span class="line">    Conv2D-27      [[1, 1024, 16, 16]]   [1, 1024, 16, 16]      1,048,576</span><br><span class="line">  BatchNorm-27     [[1, 1024, 16, 16]]   [1, 1024, 16, 16]        4,096</span><br><span class="line">  ConvBNLayer-27    [[1, 1024, 16, 16]]   [1, 1024, 16, 16]          0</span><br><span class="line">    Conv2D-28       [[1, 512, 32, 32]]   [1, 1024, 16, 16]       524,288</span><br><span class="line">  BatchNorm-28     [[1, 1024, 16, 16]]   [1, 1024, 16, 16]        4,096</span><br><span class="line">  ConvBNLayer-28     [[1, 512, 32, 32]]   [1, 1024, 16, 16]          0</span><br><span class="line">BottleneckBlock-8   [[1, 512, 32, 32]]   [1, 1024, 16, 16]          0</span><br><span class="line">    Conv2D-29      [[1, 1024, 16, 16]]   [1, 1024, 16, 16]      1,048,576</span><br><span class="line">  BatchNorm-29     [[1, 1024, 16, 16]]   [1, 1024, 16, 16]        4,096</span><br><span class="line">  ConvBNLayer-29    [[1, 1024, 16, 16]]   [1, 1024, 16, 16]          0</span><br><span class="line">    Conv2D-30      [[1, 1024, 16, 16]]   [1, 1024, 16, 16]       147,456</span><br><span class="line">  BatchNorm-30     [[1, 1024, 16, 16]]   [1, 1024, 16, 16]        4,096</span><br><span class="line">  ConvBNLayer-30    [[1, 1024, 16, 16]]   [1, 1024, 16, 16]          0</span><br><span class="line">    Conv2D-31      [[1, 1024, 16, 16]]   [1, 1024, 16, 16]      1,048,576</span><br><span class="line">  BatchNorm-31     [[1, 1024, 16, 16]]   [1, 1024, 16, 16]        4,096</span><br><span class="line">  ConvBNLayer-31    [[1, 1024, 16, 16]]   [1, 1024, 16, 16]          0</span><br><span class="line">BottleneckBlock-9  [[1, 1024, 16, 16]]   [1, 1024, 16, 16]          0</span><br><span class="line">    Conv2D-32      [[1, 1024, 16, 16]]   [1, 1024, 16, 16]      1,048,576</span><br><span class="line">  BatchNorm-32     [[1, 1024, 16, 16]]   [1, 1024, 16, 16]        4,096</span><br><span class="line">  ConvBNLayer-32    [[1, 1024, 16, 16]]   [1, 1024, 16, 16]          0</span><br><span class="line">    Conv2D-33      [[1, 1024, 16, 16]]   [1, 1024, 16, 16]       147,456</span><br><span class="line">  BatchNorm-33     [[1, 1024, 16, 16]]   [1, 1024, 16, 16]        4,096</span><br><span class="line">  ConvBNLayer-33    [[1, 1024, 16, 16]]   [1, 1024, 16, 16]          0</span><br><span class="line">    Conv2D-34      [[1, 1024, 16, 16]]   [1, 1024, 16, 16]      1,048,576</span><br><span class="line">  BatchNorm-34     [[1, 1024, 16, 16]]   [1, 1024, 16, 16]        4,096</span><br><span class="line">  ConvBNLayer-34    [[1, 1024, 16, 16]]   [1, 1024, 16, 16]          0</span><br><span class="line">BottleneckBlock-10  [[1, 1024, 16, 16]]   [1, 1024, 16, 16]          0</span><br><span class="line">    Conv2D-35      [[1, 1024, 16, 16]]   [1, 1024, 16, 16]      1,048,576</span><br><span class="line">  BatchNorm-35     [[1, 1024, 16, 16]]   [1, 1024, 16, 16]        4,096</span><br><span class="line">  ConvBNLayer-35    [[1, 1024, 16, 16]]   [1, 1024, 16, 16]          0</span><br><span class="line">    Conv2D-36      [[1, 1024, 16, 16]]   [1, 1024, 16, 16]       147,456</span><br><span class="line">  BatchNorm-36     [[1, 1024, 16, 16]]   [1, 1024, 16, 16]        4,096</span><br><span class="line">  ConvBNLayer-36    [[1, 1024, 16, 16]]   [1, 1024, 16, 16]          0</span><br><span class="line">    Conv2D-37      [[1, 1024, 16, 16]]   [1, 1024, 16, 16]      1,048,576</span><br><span class="line">  BatchNorm-37     [[1, 1024, 16, 16]]   [1, 1024, 16, 16]        4,096</span><br><span class="line">  ConvBNLayer-37    [[1, 1024, 16, 16]]   [1, 1024, 16, 16]          0</span><br><span class="line">BottleneckBlock-11  [[1, 1024, 16, 16]]   [1, 1024, 16, 16]          0</span><br><span class="line">    Conv2D-38      [[1, 1024, 16, 16]]   [1, 1024, 16, 16]      1,048,576</span><br><span class="line">  BatchNorm-38     [[1, 1024, 16, 16]]   [1, 1024, 16, 16]        4,096</span><br><span class="line">  ConvBNLayer-38    [[1, 1024, 16, 16]]   [1, 1024, 16, 16]          0</span><br><span class="line">    Conv2D-39      [[1, 1024, 16, 16]]   [1, 1024, 16, 16]       147,456</span><br><span class="line">  BatchNorm-39     [[1, 1024, 16, 16]]   [1, 1024, 16, 16]        4,096</span><br><span class="line">  ConvBNLayer-39    [[1, 1024, 16, 16]]   [1, 1024, 16, 16]          0</span><br><span class="line">    Conv2D-40      [[1, 1024, 16, 16]]   [1, 1024, 16, 16]      1,048,576</span><br><span class="line">  BatchNorm-40     [[1, 1024, 16, 16]]   [1, 1024, 16, 16]        4,096</span><br><span class="line">  ConvBNLayer-40    [[1, 1024, 16, 16]]   [1, 1024, 16, 16]          0</span><br><span class="line">BottleneckBlock-12  [[1, 1024, 16, 16]]   [1, 1024, 16, 16]          0</span><br><span class="line">    Conv2D-41      [[1, 1024, 16, 16]]   [1, 1024, 16, 16]      1,048,576</span><br><span class="line">  BatchNorm-41     [[1, 1024, 16, 16]]   [1, 1024, 16, 16]        4,096</span><br><span class="line">  ConvBNLayer-41    [[1, 1024, 16, 16]]   [1, 1024, 16, 16]          0</span><br><span class="line">    Conv2D-42      [[1, 1024, 16, 16]]   [1, 1024, 16, 16]       147,456</span><br><span class="line">  BatchNorm-42     [[1, 1024, 16, 16]]   [1, 1024, 16, 16]        4,096</span><br><span class="line">  ConvBNLayer-42    [[1, 1024, 16, 16]]   [1, 1024, 16, 16]          0</span><br><span class="line">    Conv2D-43      [[1, 1024, 16, 16]]   [1, 1024, 16, 16]      1,048,576</span><br><span class="line">  BatchNorm-43     [[1, 1024, 16, 16]]   [1, 1024, 16, 16]        4,096</span><br><span class="line">  ConvBNLayer-43    [[1, 1024, 16, 16]]   [1, 1024, 16, 16]          0</span><br><span class="line">BottleneckBlock-13  [[1, 1024, 16, 16]]   [1, 1024, 16, 16]          0</span><br><span class="line">    Conv2D-44      [[1, 1024, 16, 16]]   [1, 1024, 16, 16]      1,048,576</span><br><span class="line">  BatchNorm-44     [[1, 1024, 16, 16]]   [1, 1024, 16, 16]        4,096</span><br><span class="line">  ConvBNLayer-44    [[1, 1024, 16, 16]]   [1, 1024, 16, 16]          0</span><br><span class="line">    Conv2D-45      [[1, 1024, 16, 16]]   [1, 1024, 16, 16]       147,456</span><br><span class="line">  BatchNorm-45     [[1, 1024, 16, 16]]   [1, 1024, 16, 16]        4,096</span><br><span class="line">  ConvBNLayer-45    [[1, 1024, 16, 16]]   [1, 1024, 16, 16]          0</span><br><span class="line">    Conv2D-46      [[1, 1024, 16, 16]]   [1, 1024, 16, 16]      1,048,576</span><br><span class="line">  BatchNorm-46     [[1, 1024, 16, 16]]   [1, 1024, 16, 16]        4,096</span><br><span class="line">  ConvBNLayer-46    [[1, 1024, 16, 16]]   [1, 1024, 16, 16]          0</span><br><span class="line">BottleneckBlock-14  [[1, 1024, 16, 16]]   [1, 1024, 16, 16]          0</span><br><span class="line">    Conv2D-47      [[1, 1024, 16, 16]]   [1, 1024, 16, 16]      1,048,576</span><br><span class="line">  BatchNorm-47     [[1, 1024, 16, 16]]   [1, 1024, 16, 16]        4,096</span><br><span class="line">  ConvBNLayer-47    [[1, 1024, 16, 16]]   [1, 1024, 16, 16]          0</span><br><span class="line">    Conv2D-48      [[1, 1024, 16, 16]]   [1, 1024, 16, 16]       147,456</span><br><span class="line">  BatchNorm-48     [[1, 1024, 16, 16]]   [1, 1024, 16, 16]        4,096</span><br><span class="line">  ConvBNLayer-48    [[1, 1024, 16, 16]]   [1, 1024, 16, 16]          0</span><br><span class="line">    Conv2D-49      [[1, 1024, 16, 16]]   [1, 1024, 16, 16]      1,048,576</span><br><span class="line">  BatchNorm-49     [[1, 1024, 16, 16]]   [1, 1024, 16, 16]        4,096</span><br><span class="line">  ConvBNLayer-49    [[1, 1024, 16, 16]]   [1, 1024, 16, 16]          0</span><br><span class="line">BottleneckBlock-15  [[1, 1024, 16, 16]]   [1, 1024, 16, 16]          0</span><br><span class="line">    Conv2D-50      [[1, 1024, 16, 16]]   [1, 1024, 16, 16]      1,048,576</span><br><span class="line">  BatchNorm-50     [[1, 1024, 16, 16]]   [1, 1024, 16, 16]        4,096</span><br><span class="line">  ConvBNLayer-50    [[1, 1024, 16, 16]]   [1, 1024, 16, 16]          0</span><br><span class="line">    Conv2D-51      [[1, 1024, 16, 16]]   [1, 1024, 16, 16]       147,456</span><br><span class="line">  BatchNorm-51     [[1, 1024, 16, 16]]   [1, 1024, 16, 16]        4,096</span><br><span class="line">  ConvBNLayer-51    [[1, 1024, 16, 16]]   [1, 1024, 16, 16]          0</span><br><span class="line">    Conv2D-52      [[1, 1024, 16, 16]]   [1, 1024, 16, 16]      1,048,576</span><br><span class="line">  BatchNorm-52     [[1, 1024, 16, 16]]   [1, 1024, 16, 16]        4,096</span><br><span class="line">  ConvBNLayer-52    [[1, 1024, 16, 16]]   [1, 1024, 16, 16]          0</span><br><span class="line">BottleneckBlock-16  [[1, 1024, 16, 16]]   [1, 1024, 16, 16]          0</span><br><span class="line">    Conv2D-53      [[1, 1024, 16, 16]]   [1, 1024, 16, 16]      1,048,576</span><br><span class="line">  BatchNorm-53     [[1, 1024, 16, 16]]   [1, 1024, 16, 16]        4,096</span><br><span class="line">  ConvBNLayer-53    [[1, 1024, 16, 16]]   [1, 1024, 16, 16]          0</span><br><span class="line">    Conv2D-54      [[1, 1024, 16, 16]]   [1, 1024, 16, 16]       147,456</span><br><span class="line">  BatchNorm-54     [[1, 1024, 16, 16]]   [1, 1024, 16, 16]        4,096</span><br><span class="line">  ConvBNLayer-54    [[1, 1024, 16, 16]]   [1, 1024, 16, 16]          0</span><br><span class="line">    Conv2D-55      [[1, 1024, 16, 16]]   [1, 1024, 16, 16]      1,048,576</span><br><span class="line">  BatchNorm-55     [[1, 1024, 16, 16]]   [1, 1024, 16, 16]        4,096</span><br><span class="line">  ConvBNLayer-55    [[1, 1024, 16, 16]]   [1, 1024, 16, 16]          0</span><br><span class="line">BottleneckBlock-17  [[1, 1024, 16, 16]]   [1, 1024, 16, 16]          0</span><br><span class="line">    Conv2D-56      [[1, 1024, 16, 16]]   [1, 1024, 16, 16]      1,048,576</span><br><span class="line">  BatchNorm-56     [[1, 1024, 16, 16]]   [1, 1024, 16, 16]        4,096</span><br><span class="line">  ConvBNLayer-56    [[1, 1024, 16, 16]]   [1, 1024, 16, 16]          0</span><br><span class="line">    Conv2D-57      [[1, 1024, 16, 16]]   [1, 1024, 16, 16]       147,456</span><br><span class="line">  BatchNorm-57     [[1, 1024, 16, 16]]   [1, 1024, 16, 16]        4,096</span><br><span class="line">  ConvBNLayer-57    [[1, 1024, 16, 16]]   [1, 1024, 16, 16]          0</span><br><span class="line">    Conv2D-58      [[1, 1024, 16, 16]]   [1, 1024, 16, 16]      1,048,576</span><br><span class="line">  BatchNorm-58     [[1, 1024, 16, 16]]   [1, 1024, 16, 16]        4,096</span><br><span class="line">  ConvBNLayer-58    [[1, 1024, 16, 16]]   [1, 1024, 16, 16]          0</span><br><span class="line">BottleneckBlock-18  [[1, 1024, 16, 16]]   [1, 1024, 16, 16]          0</span><br><span class="line">    Conv2D-59      [[1, 1024, 16, 16]]   [1, 1024, 16, 16]      1,048,576</span><br><span class="line">  BatchNorm-59     [[1, 1024, 16, 16]]   [1, 1024, 16, 16]        4,096</span><br><span class="line">  ConvBNLayer-59    [[1, 1024, 16, 16]]   [1, 1024, 16, 16]          0</span><br><span class="line">    Conv2D-60      [[1, 1024, 16, 16]]   [1, 1024, 16, 16]       147,456</span><br><span class="line">  BatchNorm-60     [[1, 1024, 16, 16]]   [1, 1024, 16, 16]        4,096</span><br><span class="line">  ConvBNLayer-60    [[1, 1024, 16, 16]]   [1, 1024, 16, 16]          0</span><br><span class="line">    Conv2D-61      [[1, 1024, 16, 16]]   [1, 1024, 16, 16]      1,048,576</span><br><span class="line">  BatchNorm-61     [[1, 1024, 16, 16]]   [1, 1024, 16, 16]        4,096</span><br><span class="line">  ConvBNLayer-61    [[1, 1024, 16, 16]]   [1, 1024, 16, 16]          0</span><br><span class="line">BottleneckBlock-19  [[1, 1024, 16, 16]]   [1, 1024, 16, 16]          0</span><br><span class="line">    Conv2D-62      [[1, 1024, 16, 16]]   [1, 1024, 16, 16]      1,048,576</span><br><span class="line">  BatchNorm-62     [[1, 1024, 16, 16]]   [1, 1024, 16, 16]        4,096</span><br><span class="line">  ConvBNLayer-62    [[1, 1024, 16, 16]]   [1, 1024, 16, 16]          0</span><br><span class="line">    Conv2D-63      [[1, 1024, 16, 16]]   [1, 1024, 16, 16]       147,456</span><br><span class="line">  BatchNorm-63     [[1, 1024, 16, 16]]   [1, 1024, 16, 16]        4,096</span><br><span class="line">  ConvBNLayer-63    [[1, 1024, 16, 16]]   [1, 1024, 16, 16]          0</span><br><span class="line">    Conv2D-64      [[1, 1024, 16, 16]]   [1, 1024, 16, 16]      1,048,576</span><br><span class="line">  BatchNorm-64     [[1, 1024, 16, 16]]   [1, 1024, 16, 16]        4,096</span><br><span class="line">  ConvBNLayer-64    [[1, 1024, 16, 16]]   [1, 1024, 16, 16]          0</span><br><span class="line">BottleneckBlock-20  [[1, 1024, 16, 16]]   [1, 1024, 16, 16]          0</span><br><span class="line">    Conv2D-65      [[1, 1024, 16, 16]]   [1, 1024, 16, 16]      1,048,576</span><br><span class="line">  BatchNorm-65     [[1, 1024, 16, 16]]   [1, 1024, 16, 16]        4,096</span><br><span class="line">  ConvBNLayer-65    [[1, 1024, 16, 16]]   [1, 1024, 16, 16]          0</span><br><span class="line">    Conv2D-66      [[1, 1024, 16, 16]]   [1, 1024, 16, 16]       147,456</span><br><span class="line">  BatchNorm-66     [[1, 1024, 16, 16]]   [1, 1024, 16, 16]        4,096</span><br><span class="line">  ConvBNLayer-66    [[1, 1024, 16, 16]]   [1, 1024, 16, 16]          0</span><br><span class="line">    Conv2D-67      [[1, 1024, 16, 16]]   [1, 1024, 16, 16]      1,048,576</span><br><span class="line">  BatchNorm-67     [[1, 1024, 16, 16]]   [1, 1024, 16, 16]        4,096</span><br><span class="line">  ConvBNLayer-67    [[1, 1024, 16, 16]]   [1, 1024, 16, 16]          0</span><br><span class="line">BottleneckBlock-21  [[1, 1024, 16, 16]]   [1, 1024, 16, 16]          0</span><br><span class="line">    Conv2D-68      [[1, 1024, 16, 16]]   [1, 1024, 16, 16]      1,048,576</span><br><span class="line">  BatchNorm-68     [[1, 1024, 16, 16]]   [1, 1024, 16, 16]        4,096</span><br><span class="line">  ConvBNLayer-68    [[1, 1024, 16, 16]]   [1, 1024, 16, 16]          0</span><br><span class="line">    Conv2D-69      [[1, 1024, 16, 16]]   [1, 1024, 16, 16]       147,456</span><br><span class="line">  BatchNorm-69     [[1, 1024, 16, 16]]   [1, 1024, 16, 16]        4,096</span><br><span class="line">  ConvBNLayer-69    [[1, 1024, 16, 16]]   [1, 1024, 16, 16]          0</span><br><span class="line">    Conv2D-70      [[1, 1024, 16, 16]]   [1, 1024, 16, 16]      1,048,576</span><br><span class="line">  BatchNorm-70     [[1, 1024, 16, 16]]   [1, 1024, 16, 16]        4,096</span><br><span class="line">  ConvBNLayer-70    [[1, 1024, 16, 16]]   [1, 1024, 16, 16]          0</span><br><span class="line">BottleneckBlock-22  [[1, 1024, 16, 16]]   [1, 1024, 16, 16]          0</span><br><span class="line">    Conv2D-71      [[1, 1024, 16, 16]]   [1, 1024, 16, 16]      1,048,576</span><br><span class="line">  BatchNorm-71     [[1, 1024, 16, 16]]   [1, 1024, 16, 16]        4,096</span><br><span class="line">  ConvBNLayer-71    [[1, 1024, 16, 16]]   [1, 1024, 16, 16]          0</span><br><span class="line">    Conv2D-72      [[1, 1024, 16, 16]]   [1, 1024, 16, 16]       147,456</span><br><span class="line">  BatchNorm-72     [[1, 1024, 16, 16]]   [1, 1024, 16, 16]        4,096</span><br><span class="line">  ConvBNLayer-72    [[1, 1024, 16, 16]]   [1, 1024, 16, 16]          0</span><br><span class="line">    Conv2D-73      [[1, 1024, 16, 16]]   [1, 1024, 16, 16]      1,048,576</span><br><span class="line">  BatchNorm-73     [[1, 1024, 16, 16]]   [1, 1024, 16, 16]        4,096</span><br><span class="line">  ConvBNLayer-73    [[1, 1024, 16, 16]]   [1, 1024, 16, 16]          0</span><br><span class="line">BottleneckBlock-23  [[1, 1024, 16, 16]]   [1, 1024, 16, 16]          0</span><br><span class="line">    Conv2D-74      [[1, 1024, 16, 16]]   [1, 1024, 16, 16]      1,048,576</span><br><span class="line">  BatchNorm-74     [[1, 1024, 16, 16]]   [1, 1024, 16, 16]        4,096</span><br><span class="line">  ConvBNLayer-74    [[1, 1024, 16, 16]]   [1, 1024, 16, 16]          0</span><br><span class="line">    Conv2D-75      [[1, 1024, 16, 16]]   [1, 1024, 16, 16]       147,456</span><br><span class="line">  BatchNorm-75     [[1, 1024, 16, 16]]   [1, 1024, 16, 16]        4,096</span><br><span class="line">  ConvBNLayer-75    [[1, 1024, 16, 16]]   [1, 1024, 16, 16]          0</span><br><span class="line">    Conv2D-76      [[1, 1024, 16, 16]]   [1, 1024, 16, 16]      1,048,576</span><br><span class="line">  BatchNorm-76     [[1, 1024, 16, 16]]   [1, 1024, 16, 16]        4,096</span><br><span class="line">  ConvBNLayer-76    [[1, 1024, 16, 16]]   [1, 1024, 16, 16]          0</span><br><span class="line">BottleneckBlock-24  [[1, 1024, 16, 16]]   [1, 1024, 16, 16]          0</span><br><span class="line">    Conv2D-77      [[1, 1024, 16, 16]]   [1, 1024, 16, 16]      1,048,576</span><br><span class="line">  BatchNorm-77     [[1, 1024, 16, 16]]   [1, 1024, 16, 16]        4,096</span><br><span class="line">  ConvBNLayer-77    [[1, 1024, 16, 16]]   [1, 1024, 16, 16]          0</span><br><span class="line">    Conv2D-78      [[1, 1024, 16, 16]]   [1, 1024, 16, 16]       147,456</span><br><span class="line">  BatchNorm-78     [[1, 1024, 16, 16]]   [1, 1024, 16, 16]        4,096</span><br><span class="line">  ConvBNLayer-78    [[1, 1024, 16, 16]]   [1, 1024, 16, 16]          0</span><br><span class="line">    Conv2D-79      [[1, 1024, 16, 16]]   [1, 1024, 16, 16]      1,048,576</span><br><span class="line">  BatchNorm-79     [[1, 1024, 16, 16]]   [1, 1024, 16, 16]        4,096</span><br><span class="line">  ConvBNLayer-79    [[1, 1024, 16, 16]]   [1, 1024, 16, 16]          0</span><br><span class="line">BottleneckBlock-25  [[1, 1024, 16, 16]]   [1, 1024, 16, 16]          0</span><br><span class="line">    Conv2D-80      [[1, 1024, 16, 16]]   [1, 1024, 16, 16]      1,048,576</span><br><span class="line">  BatchNorm-80     [[1, 1024, 16, 16]]   [1, 1024, 16, 16]        4,096</span><br><span class="line">  ConvBNLayer-80    [[1, 1024, 16, 16]]   [1, 1024, 16, 16]          0</span><br><span class="line">    Conv2D-81      [[1, 1024, 16, 16]]   [1, 1024, 16, 16]       147,456</span><br><span class="line">  BatchNorm-81     [[1, 1024, 16, 16]]   [1, 1024, 16, 16]        4,096</span><br><span class="line">  ConvBNLayer-81    [[1, 1024, 16, 16]]   [1, 1024, 16, 16]          0</span><br><span class="line">    Conv2D-82      [[1, 1024, 16, 16]]   [1, 1024, 16, 16]      1,048,576</span><br><span class="line">  BatchNorm-82     [[1, 1024, 16, 16]]   [1, 1024, 16, 16]        4,096</span><br><span class="line">  ConvBNLayer-82    [[1, 1024, 16, 16]]   [1, 1024, 16, 16]          0</span><br><span class="line">BottleneckBlock-26  [[1, 1024, 16, 16]]   [1, 1024, 16, 16]          0</span><br><span class="line">    Conv2D-83      [[1, 1024, 16, 16]]   [1, 1024, 16, 16]      1,048,576</span><br><span class="line">  BatchNorm-83     [[1, 1024, 16, 16]]   [1, 1024, 16, 16]        4,096</span><br><span class="line">  ConvBNLayer-83    [[1, 1024, 16, 16]]   [1, 1024, 16, 16]          0</span><br><span class="line">    Conv2D-84      [[1, 1024, 16, 16]]   [1, 1024, 16, 16]       147,456</span><br><span class="line">  BatchNorm-84     [[1, 1024, 16, 16]]   [1, 1024, 16, 16]        4,096</span><br><span class="line">  ConvBNLayer-84    [[1, 1024, 16, 16]]   [1, 1024, 16, 16]          0</span><br><span class="line">    Conv2D-85      [[1, 1024, 16, 16]]   [1, 1024, 16, 16]      1,048,576</span><br><span class="line">  BatchNorm-85     [[1, 1024, 16, 16]]   [1, 1024, 16, 16]        4,096</span><br><span class="line">  ConvBNLayer-85    [[1, 1024, 16, 16]]   [1, 1024, 16, 16]          0</span><br><span class="line">BottleneckBlock-27  [[1, 1024, 16, 16]]   [1, 1024, 16, 16]          0</span><br><span class="line">    Conv2D-86      [[1, 1024, 16, 16]]   [1, 1024, 16, 16]      1,048,576</span><br><span class="line">  BatchNorm-86     [[1, 1024, 16, 16]]   [1, 1024, 16, 16]        4,096</span><br><span class="line">  ConvBNLayer-86    [[1, 1024, 16, 16]]   [1, 1024, 16, 16]          0</span><br><span class="line">    Conv2D-87      [[1, 1024, 16, 16]]   [1, 1024, 16, 16]       147,456</span><br><span class="line">  BatchNorm-87     [[1, 1024, 16, 16]]   [1, 1024, 16, 16]        4,096</span><br><span class="line">  ConvBNLayer-87    [[1, 1024, 16, 16]]   [1, 1024, 16, 16]          0</span><br><span class="line">    Conv2D-88      [[1, 1024, 16, 16]]   [1, 1024, 16, 16]      1,048,576</span><br><span class="line">  BatchNorm-88     [[1, 1024, 16, 16]]   [1, 1024, 16, 16]        4,096</span><br><span class="line">  ConvBNLayer-88    [[1, 1024, 16, 16]]   [1, 1024, 16, 16]          0</span><br><span class="line">BottleneckBlock-28  [[1, 1024, 16, 16]]   [1, 1024, 16, 16]          0</span><br><span class="line">    Conv2D-89      [[1, 1024, 16, 16]]   [1, 1024, 16, 16]      1,048,576</span><br><span class="line">  BatchNorm-89     [[1, 1024, 16, 16]]   [1, 1024, 16, 16]        4,096</span><br><span class="line">  ConvBNLayer-89    [[1, 1024, 16, 16]]   [1, 1024, 16, 16]          0</span><br><span class="line">    Conv2D-90      [[1, 1024, 16, 16]]   [1, 1024, 16, 16]       147,456</span><br><span class="line">  BatchNorm-90     [[1, 1024, 16, 16]]   [1, 1024, 16, 16]        4,096</span><br><span class="line">  ConvBNLayer-90    [[1, 1024, 16, 16]]   [1, 1024, 16, 16]          0</span><br><span class="line">    Conv2D-91      [[1, 1024, 16, 16]]   [1, 1024, 16, 16]      1,048,576</span><br><span class="line">  BatchNorm-91     [[1, 1024, 16, 16]]   [1, 1024, 16, 16]        4,096</span><br><span class="line">  ConvBNLayer-91    [[1, 1024, 16, 16]]   [1, 1024, 16, 16]          0</span><br><span class="line">BottleneckBlock-29  [[1, 1024, 16, 16]]   [1, 1024, 16, 16]          0</span><br><span class="line">    Conv2D-92      [[1, 1024, 16, 16]]   [1, 1024, 16, 16]      1,048,576</span><br><span class="line">  BatchNorm-92     [[1, 1024, 16, 16]]   [1, 1024, 16, 16]        4,096</span><br><span class="line">  ConvBNLayer-92    [[1, 1024, 16, 16]]   [1, 1024, 16, 16]          0</span><br><span class="line">    Conv2D-93      [[1, 1024, 16, 16]]   [1, 1024, 16, 16]       147,456</span><br><span class="line">  BatchNorm-93     [[1, 1024, 16, 16]]   [1, 1024, 16, 16]        4,096</span><br><span class="line">  ConvBNLayer-93    [[1, 1024, 16, 16]]   [1, 1024, 16, 16]          0</span><br><span class="line">    Conv2D-94      [[1, 1024, 16, 16]]   [1, 1024, 16, 16]      1,048,576</span><br><span class="line">  BatchNorm-94     [[1, 1024, 16, 16]]   [1, 1024, 16, 16]        4,096</span><br><span class="line">  ConvBNLayer-94    [[1, 1024, 16, 16]]   [1, 1024, 16, 16]          0</span><br><span class="line">BottleneckBlock-30  [[1, 1024, 16, 16]]   [1, 1024, 16, 16]          0</span><br><span class="line">    Conv2D-95      [[1, 1024, 16, 16]]   [1, 2048, 16, 16]      2,097,152</span><br><span class="line">  BatchNorm-95     [[1, 2048, 16, 16]]   [1, 2048, 16, 16]        8,192</span><br><span class="line">  ConvBNLayer-95    [[1, 1024, 16, 16]]   [1, 2048, 16, 16]          0</span><br><span class="line">    Conv2D-96      [[1, 2048, 16, 16]]    [1, 2048, 8, 8]        589,824</span><br><span class="line">  BatchNorm-96      [[1, 2048, 8, 8]]     [1, 2048, 8, 8]         8,192</span><br><span class="line">  ConvBNLayer-96    [[1, 2048, 16, 16]]    [1, 2048, 8, 8]           0</span><br><span class="line">    Conv2D-97       [[1, 2048, 8, 8]]     [1, 2048, 8, 8]       4,194,304</span><br><span class="line">  BatchNorm-97      [[1, 2048, 8, 8]]     [1, 2048, 8, 8]         8,192</span><br><span class="line">  ConvBNLayer-97     [[1, 2048, 8, 8]]     [1, 2048, 8, 8]           0</span><br><span class="line">    Conv2D-98      [[1, 1024, 16, 16]]    [1, 2048, 8, 8]       2,097,152</span><br><span class="line">  BatchNorm-98      [[1, 2048, 8, 8]]     [1, 2048, 8, 8]         8,192</span><br><span class="line">  ConvBNLayer-98    [[1, 1024, 16, 16]]    [1, 2048, 8, 8]           0</span><br><span class="line">BottleneckBlock-31  [[1, 1024, 16, 16]]    [1, 2048, 8, 8]           0</span><br><span class="line">    Conv2D-99       [[1, 2048, 8, 8]]     [1, 2048, 8, 8]       4,194,304</span><br><span class="line">  BatchNorm-99      [[1, 2048, 8, 8]]     [1, 2048, 8, 8]         8,192</span><br><span class="line">  ConvBNLayer-99     [[1, 2048, 8, 8]]     [1, 2048, 8, 8]           0</span><br><span class="line">    Conv2D-100       [[1, 2048, 8, 8]]     [1, 2048, 8, 8]        589,824</span><br><span class="line">  BatchNorm-100     [[1, 2048, 8, 8]]     [1, 2048, 8, 8]         8,192</span><br><span class="line">  ConvBNLayer-100    [[1, 2048, 8, 8]]     [1, 2048, 8, 8]           0</span><br><span class="line">    Conv2D-101       [[1, 2048, 8, 8]]     [1, 2048, 8, 8]       4,194,304</span><br><span class="line">  BatchNorm-101     [[1, 2048, 8, 8]]     [1, 2048, 8, 8]         8,192</span><br><span class="line">  ConvBNLayer-101    [[1, 2048, 8, 8]]     [1, 2048, 8, 8]           0</span><br><span class="line">BottleneckBlock-32   [[1, 2048, 8, 8]]     [1, 2048, 8, 8]           0</span><br><span class="line">    Conv2D-102       [[1, 2048, 8, 8]]     [1, 2048, 8, 8]       4,194,304</span><br><span class="line">  BatchNorm-102     [[1, 2048, 8, 8]]     [1, 2048, 8, 8]         8,192</span><br><span class="line">  ConvBNLayer-102    [[1, 2048, 8, 8]]     [1, 2048, 8, 8]           0</span><br><span class="line">    Conv2D-103       [[1, 2048, 8, 8]]     [1, 2048, 8, 8]        589,824</span><br><span class="line">  BatchNorm-103     [[1, 2048, 8, 8]]     [1, 2048, 8, 8]         8,192</span><br><span class="line">  ConvBNLayer-103    [[1, 2048, 8, 8]]     [1, 2048, 8, 8]           0</span><br><span class="line">    Conv2D-104       [[1, 2048, 8, 8]]     [1, 2048, 8, 8]       4,194,304</span><br><span class="line">  BatchNorm-104     [[1, 2048, 8, 8]]     [1, 2048, 8, 8]         8,192</span><br><span class="line">  ConvBNLayer-104    [[1, 2048, 8, 8]]     [1, 2048, 8, 8]           0</span><br><span class="line">BottleneckBlock-33   [[1, 2048, 8, 8]]     [1, 2048, 8, 8]           0</span><br><span class="line">AdaptiveAvgPool2D-1  [[1, 2048, 8, 8]]     [1, 2048, 1, 1]           0</span><br><span class="line">    Linear-1           [[1, 2048]]           [1, 1000]          2,049,000</span><br><span class="line">    ResNeXt-2       [[1, 3, 256, 256]]       [1, 1000]              0</span><br><span class="line">    Dropout-1          [[1, 1000]]           [1, 1000]              0</span><br><span class="line">    Linear-2           [[1, 1000]]             [1, 2]             2,002</span><br><span class="line">===============================================================================</span><br><span class="line">Total params: 83,660,154</span><br><span class="line">Trainable params: 83,254,394</span><br><span class="line">Non-trainable params: 405,760</span><br><span class="line">-------------------------------------------------------------------------------</span><br>
…
